notebooks/drugs.pth (torch, 12311 bytes, 6 tensors)

input_1.weight f4 [100, 9]
0	0xbde747ea	-0.112930134
1	0x3e8d1638	0.27556014
2	0xbde84e16	-0.11343019
3	0x3dc08d50	0.09401953
4	0x3dc1e200	0.09466934
5	0xbc6e0200	-0.014526844
6	0xbe137a43	-0.14402108
7	0xbe43d17e	-0.19122884
8	0xbe5e4c5a	-0.21708813
9	0xbca06b34	-0.019582368
10	0x3ef5b830	0.47992086
11	0x3d93b4c4	0.07212213
12	0x3d8e70dd	0.06955121
13	0xbece2a1c	-0.40266502
14	0x3ee5e9ec	0.4490503
15	0x3dee7234	0.11642876
16	0x3ea18bc9	0.3155196
17	0x3e47f309	0.19526304
18	0xbec90454	-0.39261115
19	0xbeadc72e	-0.33941025
20	0xbd5b38c9	-0.05352095
21	0x3e35400e	0.17700216
22	0x3df76d65	0.12081412
23	0x3f1988dd	0.5997446
24	0xbe74d552	-0.239095
25	0x3e1d9c27	0.15391599
26	0xbf0b0cb6	-0.5431627
27	0xbe9d6116	-0.30738133
28	0x3ebf1c0a	0.3732608
29	0xbed0a468	-0.40750432
30	0x3e97b1cf	0.29627845
31	0xbe227dbd	-0.15868278
32	0x3f34a4ca	0.7056395
33	0x3e4a68a3	0.19766478
34	0xbcaed57e	-0.021342035
35	0xbe20c030	-0.15698314
36	0xbc424343	-0.011856857
37	0x3ecfb118	0.405648
38	0xbed7e4fd	-0.42166892
39	0x3df0aaf1	0.117513545
40	0xbe927956	-0.28608197
41	0xbe212814	-0.15737945
42	0x3db317d3	0.087447785
43	0xbe5a7657	-0.21334206
44	0x3ea802f3	0.3281475
45	0x3e0f44cb	0.13991086
46	0xbf15962f	-0.58432287
47	0xbdadb154	-0.08481088
48	0x3edbeab6	0.42952508
49	0x3ebe681b	0.371888
50	0x3e07732f	0.13227533
51	0x3ea9b287	0.33144018
52	0x3de140cd	0.10998688
53	0x3ea1c3ae	0.31594604
54	0x3edd18a2	0.43182856
55	0xbef59a1d	-0.47969142
56	0x3ebcbdd0	0.36863565
57	0xbe08923b	-0.13337032
58	0x3e8d9169	0.27650002
59	0xbedffc6b	-0.43747267
60	0xbe827fc1	-0.25488093
61	0x3e770c64	0.2412582
62	0x3d10295e	0.0351957
63	0x3e494641	0.19655706
64	0x3f473a9a	0.77823794
65	0x3e5af63d	0.21382995
66	0x3e680cf6	0.22661194
67	0x3ed0132f	0.40639636
68	0xbeaa7078	-0.33288932
69	0xbe4e6d0f	-0.2015879
70	0xbcd51539	-0.026011096
71	0x3e07a65e	0.13247058
72	0xbef00635	-0.46879736
73	0xbe8a0250	-0.2695489
74	0x3e45101f	0.19244431
75	0x3e4f42d7	0.20240341
76	0xbeab9887	-0.33514807
77	0x3e500243	0.20313363
78	0xbdf1977c	-0.117964715
79	0x3e870a43	0.26375017
80	0x3de18679	0.11011977
81	0x3de2e484	0.11078742
82	0xbeafcfc1	-0.3433819
83	0x3ca7b7d8	0.020473406
84	0xbd14bdcd	-0.03631382
85	0x3e8b2256	0.27174634
86	0xbea0faca	-0.31441337
87	0x3e90167d	0.28142157
88	0xbcc5cc6d	-0.02414533
89	0xbe68280b	-0.22671525
90	0x3ef7670d	0.4832081
91	0x3cdfb745	0.02730907
92	0x3ea1c630	0.31596518
93	0x3cb4acdf	0.022055088
94	0xbce4130a	-0.02784111
95	0xbda8558f	-0.08219444
96	0x3eb7b81f	0.3588266
97	0x3d8d8f57	0.069121055
98	0xbd511a04	-0.0510502
99	0x3e7c0199	0.24609984
100	0x3f628cad	0.88495904
101	0x3e0c02f7	0.13673006
102	0xbe8278d4	-0.2548281
103	0xbe0ff9a7	-0.14060079
104	0x3d4ff647	0.050771978
105	0x3eb5252a	0.35379916
106	0x3e77cb1d	0.24198575
107	0xbdd041c9	-0.101687975
108	0x3f095f33	0.5366089
109	0x3f0c48e1	0.54798704
110	0xbb914e38	-0.004434373
111	0x3ea7dda0	0.32786274
112	0xbef1a0d4	-0.47193015
113	0xbe2dfd08	-0.16991055
114	0xbe1e31df	-0.15448712
115	0xbec7fb05	-0.390587
116	0x3d22d8ef	0.039757665
117	0xbe121c09	-0.14268507
118	0xbe26d211	-0.16291071
119	0xbe06cdfc	-0.13164514
120	0xbe6fb713	-0.23409681
121	0x3e14af36	0.14519963
122	0xbddbefef	-0.10739123
123	0x3e82d05d	0.25549594
124	0x3e493419	0.1964878
125	0xbe24d73e	-0.16097733
126	0xbaf70902	-0.0018847289
127	0x3f69cb9c	0.9132631
128	0x3cb4d6e5	0.022075126
129	0x3e0325f5	0.12807448
130	0x3d08b765	0.033378024
131	0xbe2d841f	-0.16944931
132	0x3e2c9fc3	0.1685782
133	0xbdf423c4	-0.11920884
134	0x3e750d5d	0.23930879
135	0xbe60f6b1	-0.21969105
136	0x3f7fb959	0.99892193
137	0xbd593c2d	-0.053035904
138	0x3dd309e8	0.10304624
139	0x3df29ede	0.11846708
140	0xbd1ace34	-0.037794307
141	0x3eb92194	0.3615843
142	0x3dba565a	0.090985015
143	0x3e950477	0.2910497
144	0x3d9398a6	0.0720685
145	0x3f464872	0.7745429
146	0x3e70ece3	0.23527865
147	0x3e2c12f9	0.16804112
148	0xbe48fefd	-0.1962852
149	0x3effb422	0.49942118
150	0x3efb3b8d	0.4906887
151	0xbdb35191	-0.08755792
152	0x3c5dddae	0.013541622
153	0xbf1317c1	-0.5745812
154	0xbe46934c	-0.19392127
155	0x3ec9ef9c	0.3944062
156	0x3ed1f1f0	0.41004896
157	0x3d6b3d09	0.057431255
158	0x3e477d65	0.19481428
159	0xbdba478f	-0.0909568
160	0x3f02293a	0.50844157
161	0x3ed37a54	0.41304266
162	0x3e6c686a	0.23086706
163	0x3f618f8f	0.8810968
164	0xbe3ca608	-0.18422711
165	0xbdebcd42	-0.11513759
166	0xbe98ef7e	-0.29870218
167	0xbeb854db	-0.3600224
168	0x3e1244be	0.14284036
169	0xbd919859	-0.07109136
170	0xbdbea7fe	-0.09309386
171	0x3eef24b1	0.4670768
172	0xbf541bea	-0.82855093
173	0xbe3a228f	-0.18177246
174	0x3e4f6298	0.20252454
175	0x3e9b5477	0.3033788
176	0x3e4d474a	0.20046726
177	0xbec26bb6	-0.37972802
178	0x3eed07f5	0.46295133
179	0x3de578b0	0.1120466
180	0x3d6476b0	0.05577725
181	0x3f4528c1	0.7701531
182	0x3ddf677a	0.109084085
183	0x3e5fdab9	0.2186078
184	0xbe267201	-0.16254427
185	0x3e6b2da6	0.22966632
186	0xbd408900	-0.047005653
187	0xbe99806e	-0.29980797
188	0x3dfc2cd9	0.123132415
189	0xbe6eff45	-0.23339565
190	0x3f7445f4	0.9541924
191	0xbea1292c	-0.31476724
192	0xbe2b58db	-0.16733114
193	0x3de77f1c	0.11303541
194	0x3e91b1c0	0.28455925
195	0xbe096962	-0.13419107
196	0xbcc084c5	-0.02350081
197	0x3e22678b	0.15859811
198	0x3f1dfda2	0.6171514
199	0xbe9dfe57	-0.30858108
200	0xbdba0243	-0.09082463
201	0x3e0d9d42	0.1382952
202	0x3e4541f6	0.19263443
203	0xbe83ba1f	-0.25727937
204	0xbe902907	-0.281563
205	0xbea7207a	-0.32641965
206	0x3e944d38	0.28965163
207	0xbd47503f	-0.048660513
208	0x3ee72087	0.45142004
209	0x3ea10e09	0.3145602
210	0x3e2eec22	0.17082265
211	0xbe3080ed	-0.17236681
212	0x3dae474d	0.08509693
213	0x3e69f097	0.22845684
214	0xbd5801f0	-0.052736223
215	0xbd1a5778	-0.037681073
216	0x3e191c74	0.1495226
217	0x3e85aee2	0.26109987
218	0x3e6c02f8	0.23048007
219	0x3e4a51f0	0.19757819
220	0x3ef8a8c7	0.48566267
221	0xbeaef7b9	-0.34173372
222	0x3db90a88	0.09035212
223	0xbdbe7230	-0.09299123
224	0x3eebef79	0.4608114
225	0xbe9bf1b3	-0.3045784
226	0x3f00bb4c	0.5028579
227	0x3e70e63a	0.23525324
228	0x3caf92c4	0.021432288
229	0xbb651ccb	-0.003495979
230	0x3f1488b5	0.580211
231	0x3e44dfdc	0.1922602
232	0x3e9e875a	0.3096264
233	0xbe0f80ca	-0.14013973
234	0x3e48353f	0.19551562
235	0x3f2bd3c5	0.6712001
236	0xbceb02fe	-0.02868795
237	0x3e4f783e	0.20260713
238	0x3ea1354d	0.31485978
239	0xbe559c0c	-0.20860308
240	0x3ee9b1cc	0.4564346
241	0x3e3b0352	0.18262985
242	0xbdc83bb0	-0.097770095
243	0xbe4118c7	-0.18857108
244	0xbefc60bf	-0.4929256
245	0x3e8ea5bf	0.2786083
246	0xbda35f76	-0.07977192
247	0xbcaeaa1b	-0.021321347
248	0x3e610673	0.21975116
249	0xbe03df04	-0.12878042
250	0x3dfd7793	0.123763226
251	0xbe84a987	-0.2591059
252	0xbf296feb	-0.661864
253	0x3f2e78cf	0.6815309
254	0xbe84424b	-0.25831828
255	0x39e7c5b9	0.00044207068

input_1.bias f4 [100]
0	0xbe3fa41d	-0.18714948
1	0x3dc641ed	0.09680543
2	0x3e436039	0.19079675
3	0x3e691e65	0.22765501
4	0x3e9df12e	0.30848068
5	0x3efe1c00	0.49630737
6	0x3e87c164	0.26514733
7	0x3e8dbc3d	0.27682677
8	0x3efc58bb	0.49286446
9	0xbe9c035a	-0.30471307
10	0x3d2186d2	0.039435215
11	0xbabeb515	-0.0014549816
12	0x3e68d9c5	0.22739322
13	0x3ea11f6d	0.31469288
14	0x3dd7d9c1	0.1053958
15	0xbd666faf	-0.056258854
16	0xbe054ad4	-0.13016826
17	0x3ed32315	0.41237703
18	0x3eba6196	0.36402577
19	0x3e004dc5	0.12529667
20	0xbe54c689	-0.2077886
21	0x3bf9593a	0.0076095136
22	0xbe8ef5e4	-0.27921975
23	0xbcc3cf02	-0.02390242
24	0x3e0a553f	0.13509081
25	0x3e29e77f	0.16592215
26	0xbe2e0120	-0.16992617
27	0x3bd98c02	0.0066390047
28	0x3d6cafb7	0.057784762
29	0x3eb2a8b9	0.3489435
30	0x3eb25f22	0.34838206
31	0xbe04d98c	-0.12973613
32	0x3e1d70fc	0.15375131
33	0x3ed825cc	0.42216337
34	0xbe563103	-0.20917134
35	0x3e19a6d4	0.15005046
36	0xbcee4802	-0.02908707
37	0x3de0e58a	0.10981281
38	0xbe62d72e	-0.22152397
39	0x3d99808c	0.074952215
40	0x3c16e778	0.00921046
41	0xbcbd0e84	-0.02307821
42	0x3ea2c338	0.31789565
43	0x3e4e85d1	0.20168234
44	0x3e807462	0.25088793
45	0x3ee3eb46	0.44515437
46	0xbe615da7	-0.22008382
47	0x3e99ad47	0.30015013
48	0x3d93693b	0.071978055
49	0x3d31420d	0.04327588
50	0xbdebeefa	-0.115201905
51	0x3ec2aaa7	0.38020822
52	0xbdff6360	-0.12470126
53	0x3e8e9699	0.27849272
54	0xbe228992	-0.15872791
55	0x3e07f44e	0.13276789
56	0x3e2b8be2	0.1675258
57	0x3e8bb8fd	0.27289572
58	0x3eb33d3a	0.3500765
59	0x3e20912e	0.15680382
60	0x3e6342d8	0.22193468
61	0xbe023238	-0.1271447
62	0x3e14baf0	0.14524436
63	0xbe5fc007	-0.21850596
64	0xbe38718b	-0.18012063
65	0xbe65654d	-0.22401924
66	0x3ecf394b	0.404734
67	0xbe3eebaa	-0.18644586
68	0x3ec24b20	0.3794794
69	0x3d83ca6e	0.06435095
70	0x3d71a2e0	0.05899322
71	0xbb99acc0	-0.004689783
72	0xbe4e1199	-0.201239
73	0x3ee3d844	0.44500935
74	0x3e27876b	0.16360252
75	0xbe18b1e4	-0.1491161
76	0x3ec11bae	0.3771643
77	0x3e66532c	0.22492665
78	0x3e16bbdb	0.14720099
79	0x3d430389	0.047610793
80	0xbd5006f8	-0.050787896
81	0x3e09983b	0.13436978
82	0xbe33c0d7	-0.17554031
83	0x3e9c11e7	0.30482408
84	0xbe649215	-0.22321351
85	0x3d55eecf	0.0522297
86	0xbd9f29ca	-0.077716425
87	0x3ea098b2	0.31366497
88	0xbe576638	-0.21035087
89	0xbdd0a650	-0.101879716
90	0x3e0ad5c8	0.13558114
91	0x3d3520f0	0.044220865
92	0x3eab10fc	0.33411396
93	0x3e6fd50b	0.23421113
94	0x3e7c0c2b	0.24614017
95	0xbe851a63	-0.25996694
96	0x3d863225	0.06552533
97	0x3eb84a00	0.35993958
98	0x3eb68424	0.3564769
99	0x3e345cfb	0.17613594

input_2.weight f4 [15, 100]
0	0x3db0d037	0.08633464
1	0x3e2adb3c	0.16685194
2	0x3ec9493b	0.39313683
3	0x3e63e336	0.22254643
4	0xb8308708	-4.2087428e-05
5	0x3e29da9e	0.16587302
6	0x3e5828a1	0.21109249
7	0xbd94512c	-0.07242045
8	0x3e7e8181	0.2485409
9	0xbd5765fd	-0.052587498
10	0x3e8fcdc9	0.2808669
11	0x3cdaa09f	0.026687918
12	0x3e84d8e6	0.2594673
13	0xbdda96c9	-0.10673291
14	0xbe7bfa1e	-0.24607131
15	0xbee37eab	-0.44432577
16	0x3dc05670	0.09391487
17	0x3e81c761	0.25347427
18	0xbf148480	-0.5801468
19	0x3e9886b0	0.29790258
20	0xbf1c1a8b	-0.60978
21	0xbee659da	-0.44990426
22	0x3ec3e6c0	0.38261986
23	0x3e5c2120	0.21497011
24	0xbe1a809e	-0.15088126
25	0x3e8a9189	0.2706416
26	0xbec076fb	-0.37590775
27	0x3ef09987	0.46992132
28	0xbf0e6b56	-0.5563253
29	0x3e2fa3ab	0.17152278
30	0xbd1951e0	-0.037431598
31	0x3df2d527	0.11857062
32	0x3d9672bd	0.07346103
33	0x3e688a18	0.22708929
34	0x3ddc5de2	0.10760094
35	0x3d5cdd96	0.05392226
36	0x3e082bcc	0.13297957
37	0x3e010c59	0.12602367
38	0x3d9a294f	0.0752741
39	0x3ea6187c	0.32440555
40	0x3ea6b9e1	0.3256369
41	0x3e064afd	0.13114543
42	0x3dca855c	0.098887175
43	0x3e806fb5	0.25085226
44	0x3e730909	0.23733915
45	0x3edcacd8	0.4310062
46	0x3e15d5c0	0.1463232
47	0x3e3d1281	0.1846409
48	0x3dde0f85	0.10842804
49	0xbbbd347a	-0.005774078
50	0xbd38d64f	-0.045126256
51	0x3e36b534	0.17842561
52	0xbca8efcc	-0.020622157
53	0x3e1a2d78	0.15056407
54	0x3d029980	0.03188467
55	0xbe510368	-0.20411456
56	0xbc33157e	-0.010930417
57	0x3eb6ca49	0.35701206
58	0x3e7336d3	0.23751383
59	0x3e4bf382	0.1991711
60	0x3d089292	0.033342905
61	0xbe982bf4	-0.29721034
62	0x3e3b52e5	0.1829334
63	0xbeba6e2c	-0.3641218
64	0x3e40f61c	0.18843883
65	0xbb66eb4d	-0.0035235465
66	0x3e4a9590	0.19783616
67	0x3edef226	0.4354412
68	0x3e4a6dbb	0.19768421
69	0x3d574786	0.052558444
70	0x3dacc311	0.084356435
71	0xbe164f6c	-0.14678735
72	0xbf014868	-0.5050111
73	0x3d8f18cd	0.06987152
74	0x3e212be9	0.15739407
75	0xbdda824c	-0.106693834
76	0xbdc7804a	-0.09741266
77	0x3db5f246	0.088841006
78	0xbe0aae82	-0.13543132
79	0xbe6bef48	-0.23040497
80	0x3e0a0315	0.13477738
81	0x3c306e2c	0.0107684545
82	0xbe8ad08e	-0.2711224
83	0x3da01041	0.078156
84	0xbe12dff6	-0.14343247
85	0x3e066fc6	0.13128576
86	0xbd8c0bdf	-0.06838202
87	0xbde76c77	-0.11299985
88	0xbeb97ca3	-0.36227903
89	0x3d9ebdf5	0.07751075
90	0x3ca07ab8	0.019589767
91	0xbde5c30b	-0.11218842
92	0xbea3a1e3	-0.31959447
93	0xbf25a4e7	-0.64704746
94	0x3dad90e7	0.084749036
95	0xbda1d7a5	-0.07902459
96	0x3e31aa21	0.17350055
97	0xbe65ef54	-0.22454578
98	0x3e9705cb	0.29496607
99	0xbd1328aa	-0.035927452
100	0x3daa452f	0.08313977
101	0x3cf10fbb	0.029426446
102	0xbd655cc0	-0.055996656
103	0xbccd969c	-0.02509623
104	0xbce6ea3f	-0.02818787
105	0x3bac8d5b	0.0052658743
106	0x3daaedc3	0.08346131
107	0x3d9d1093	0.07669177
108	0x3d8e5977	0.06950658
109	0xbc0b4410	-0.008500114
110	0x3d7ae33f	0.061251875
111	0xbd140a16	-0.03614243
112	0x3da72581	0.0816145
113	0xbda38855	-0.07984988
114	0x3d19f436	0.037586413
115	0x3a396ad7	0.00070731103
116	0xbc5c4e9e	-0.013446478
117	0x3d0978f3	0.03356261
118	0xbc58a995	-0.013224025
119	0xbda30cb4	-0.07961407
120	0xbdabce7c	-0.08388993
121	0xbd98318d	-0.07431326
122	0x3cc8eb9f	0.024526415
123	0x3d90dce2	0.0707338
124	0x3d7cbe7e	0.061705105
125	0x3ca6b1a2	0.020348374
126	0x3cf5153b	0.02991735
127	0x3da322f5	0.07965652
128	0x3c9dfe69	0.019286351
129	0xbd012e88	-0.031538516
130	0xbcadc6d1	-0.021212967
131	0xb93d28f3	-0.000180397
132	0x3d828781	0.063735016
133	0xbd9f365e	-0.077740416
134	0xbcc2c989	-0.02377774
135	0x3d7e04c9	0.062016282
136	0xbbce4126	-0.0062943874
137	0x3cdec047	0.027191294
138	0xbd5dda43	-0.05416323
139	0x3c9984f6	0.018740159
140	0x3d379dd6	0.04482826
141	0xbc525ec7	-0.0128399795
142	0xbdae079d	-0.08497546
143	0xbca8a08c	-0.020584367
144	0xbd557d09	-0.052121196
145	0x3d18126c	0.037126943
146	0xbdb44e10	-0.08803952
147	0x3db66780	0.0890646
148	0x3c5ce802	0.013483049
149	0x3d1bb35f	0.03801286
150	0x3d81c960	0.06337237
151	0xbddf0784	-0.10890105
152	0x3994ab00	0.00028356165
153	0xbc09d594	-0.008412737
154	0x3d2cd68e	0.042196803
155	0xbdcc806e	-0.099854335
156	0x3cc76068	0.024337962
157	0xbc062c66	-0.008189296
158	0xbc96438f	-0.018342761
159	0xbdb02d61	-0.08602405
160	0xbd07bf49	-0.033141408
161	0x3d9dd2af	0.077062
162	0xbd4dbe27	-0.05023017
163	0x3d193d00	0.03741169
164	0xbddda67d	-0.10822771
165	0xbda6efe0	-0.08151221
166	0xbce1c2dd	-0.027558738
167	0x3bdd29e0	0.0067493767
168	0xbdb764de	-0.08954786
169	0xbd5605f3	-0.052251767
170	0x3c405718	0.011739515
171	0xbd1e6f51	-0.03868038
172	0x3c706bc8	0.014674135
173	0xbd22aa5b	-0.039713245
174	0x3d9b5560	0.07584643
175	0x3c9ffd65	0.019530008
176	0xbdbf8e50	-0.09353316
177	0x3d6c732f	0.057727035
178	0x3d5bbd06	0.053647064
179	0x3d2101c4	0.039308324
180	0x3d7c24f2	0.06155867
181	0xbd2f7ba0	-0.042842507
182	0xbd3e5770	-0.046470106
183	0xbb62bda0	-0.0034597889
184	0x3d74f237	0.059801307
185	0xbd6829d6	-0.056680523
186	0xbd6397fb	-0.05556486
187	0xbb44ef13	-0.0030049726
188	0xbd0e5f0d	-0.034758616
189	0x3d60fe86	0.054930232
190	0xbdc75a38	-0.09734005
191	0x3d8dc845	0.06922964
192	0xbc1d8a32	-0.009615468
193	0x3d860db3	0.06545582
194	0xbd448813	-0.047981333
195	0xbc97db20	-0.018537104
196	0xbd3fc1da	-0.04681573
197	0xbda8874a	-0.08228929
198	0xbd56385c	-0.052299842
199	0xbde207df	-0.110366575
200	0x3d41816f	0.047242578
201	0x3dc3282d	0.09529147
202	0xbed68e72	-0.41905552
203	0x3d297563	0.041371714
204	0x3e740077	0.23828302
205	0xbd6a715e	-0.05723702
206	0x3cb5e2b8	0.022202834
207	0x3e1fb89a	0.15597764
208	0xbeb83428	-0.35977292
209	0x3d9678a8	0.07347232
210	0x3dc1de30	0.09466207
211	0x3e57a57d	0.21059223
212	0x3ec2c62e	0.38041824
213	0xbb94941c	-0.0045342576
214	0x3e900ef1	0.281364
215	0x3e78f4f8	0.24312198
216	0x3dcd004c	0.10009822
217	0xbe24199a	-0.16025391
218	0x3f76124f	0.96121687
219	0xbe8065b0	-0.2507758
220	0x3f124995	0.5714353
221	0x3ee33a9e	0.4438066
222	0x3daeaf65	0.085295476
223	0x3d82fa61	0.06395412
224	0x3d8fcec2	0.07021858
225	0x3d1b8e5e	0.03797757
226	0x3e961f76	0.29320878
227	0xbee1bd5b	-0.4408978
228	0xbd918d6f	-0.071070544
229	0x3e86d175	0.26331678
230	0xbe508acf	-0.20365451
231	0xbd683e8c	-0.056700274
232	0x3d53a0ae	0.051666908
233	0xbe09b45f	-0.13447712
234	0x3d03735d	0.03209244
235	0xbbb7e798	-0.005612325
236	0xbdeeeaa0	-0.11665845
237	0xbc6dfbcc	-0.014525365
238	0xbd2787ea	-0.040901102
239	0x3bc69bbf	0.006061047
240	0xbdfa9cb2	-0.122369185
241	0x3e5a4153	0.21313982
242	0x3e308aae	0.17240402
243	0x3dc80417	0.09766405
244	0xbd969dd8	-0.07354325
245	0xbd9d854c	-0.0769144
246	0x3cec85bc	0.028872363
247	0xbe41345e	-0.18867633
248	0x3d9fd632	0.078045264
249	0x3eb1f53e	0.34757417
250	0x3f060454	0.52350354
251	0xbdad72d4	-0.08469167
252	0x3d1ae3ba	0.037814833
253	0x3ab9225d	0.0014124621
254	0x3e58843e	0.21144196
255	0x3e908076	0.28223008

input_2.bias f4 [15]
0	0x3df8020f	0.12109768
1	0xbd5afde7	-0.053464796
2	0x3ceeaab6	0.029134136
3	0x3d41be7a	0.047300793
4	0xbd9323a0	-0.07184529
5	0xbd980541	-0.07422877
6	0x3ce3858d	0.027773643
7	0xbda62bfa	-0.081138566
8	0x3e3be13e	0.18347642
9	0x3eb6a6f9	0.35674265
10	0x3cc5ba6c	0.024136744
11	0xbdba515d	-0.0909755
12	0x3d291292	0.041277476
13	0x3d81e5c5	0.06342653
14	0x3dedf9f9	0.11619944

output.weight f4 [4, 15]
0	0xbef3ad90	-0.47593355
1	0x3c458925	0.012056624
2	0x3f0dc1ac	0.55373645
3	0xbe283633	-0.16426925
4	0x3ee313c5	0.4435102
5	0xbe08b272	-0.13349321
6	0x3e36e6e1	0.17861511
7	0x3e36d162	0.1785331
8	0x3dc21ff9	0.094787546
9	0xbf33e1ec	-0.70266604
10	0x3f39ac05	0.72528106
11	0x3ecd7ee0	0.4013586
12	0x3f4052a6	0.7512611
13	0xbde0ceb4	-0.109769255
14	0xbe940d58	-0.2891643
15	0xbe166a9d	-0.14689107
16	0x3e64a4f4	0.2232855
17	0xbf41f062	-0.7575742
18	0xbd6461a1	-0.05575717
19	0xbf9687a5	-1.1760145
20	0xbdd47158	-0.10373181
21	0x3e84a6dc	0.25908554
22	0x3de960b8	0.11395401
23	0xbe81d3d4	-0.25356925
24	0x3ed74383	0.42043695
25	0xbcf26a35	-0.02959166
26	0xbf259442	-0.6467935
27	0x3e271064	0.16314846
28	0xbe80f27d	-0.25185004
29	0xbdefa880	-0.11702061
30	0xbdf365b7	-0.11884635
31	0x3d693485	0.056934852
32	0x3e9e6b4e	0.30941242
33	0x3d0b8c41	0.034069303
34	0xbdecf5c9	-0.11570317
35	0xbe7b278d	-0.24526806
36	0xbf7e4c11	-0.9933482
37	0x3c903e70	0.017607898
38	0xbf642eef	-0.89134115
39	0xbd8ce485	-0.06879524
40	0xbe90236d	-0.28152028
41	0x3e1f53ca	0.15559307
42	0xbf1ce2f2	-0.6128379
43	0x3dc6d999	0.09709472
44	0x3eb834f9	0.35977915
45	0x3e164b67	0.14677201
46	0x3e0d963c	0.13826841
47	0xbf24ee4a	-0.644261
48	0x3b28193a	0.0025649802
49	0x3e6b5ff3	0.2298582
50	0x3e713cfc	0.2355842
51	0x3e260450	0.16212583
52	0x3e130462	0.1435714
53	0x3df4c326	0.11951284
54	0x3e6ca894	0.23111182
55	0xbea379be	-0.3192882
56	0xbf2bcaf1	-0.6710654
57	0xbf089cf8	-0.53364515
58	0xbe0e35fa	-0.13887778
59	0xbfa03b0f	-1.2518023

output.bias f4 [4]
0	0x3d19542e	0.037433796
1	0x3df852ec	0.12125191
2	0x3d83df5e	0.06439088
3	0xbe373b5a	-0.17893735
